ggcnn_weights_jacquard/epoch_100_iou_97_statedict.pt (torch, 275327 bytes, 20 tensors)

features.0.weight f4 [16, 1, 11, 11]
-0.20049994 0.060983356 0.26716876 0.32372695 0.39967325 0.39080948 0.26763242 0.1227395
-0.06880518 -0.13631597 -0.23439056 -0.15932009 0.08149725 0.3349222 0.5348753 0.6711813
0.5478957 0.4268729 0.21439062 0.00612248 -0.0027657815 -0.111787684 -0.06889274 0.16064455
0.40013283 0.71635425 0.7791392 0.63000965 0.434645 0.2947059 0.17789663 -0.01103521
-0.05439284 -0.010331821 0.14121266 0.38188663 0.54484344 0.6195776 0.49183407 0.37448707
0.262237 0.14388762 0.03562878 -0.04460659 -0.09434343 0.056359734 0.19364874 0.36943868
0.3061508 0.2610694 0.23314135 0.06271438 -0.033531547 -0.047383986 -0.13252969 -0.050985895
0.075098656 0.05312488 0.057731908 0.030657955 0.06635166 0.032631174 -0.069786094 -0.0738996
-0.087029345 -0.10175535 -0.015692556 -0.060873203 -0.08302201 -0.15981658 -0.26388338 -0.28109768
-0.20770685 -0.13555206 -0.19168268 -0.072825834 -0.10749343 -0.06657288 -0.0801501 -0.15746853
-0.28085932 -0.37393516 -0.4021022 -0.3002707 -0.21157232 -0.15597706 -0.11809802 -0.07574584
0.04367579 -0.11183697 -0.12736914 -0.27046806 -0.39961657 -0.4013542 -0.37658608 -0.2813926
-0.18696555 -0.04400429 0.0017526336 0.058322433 0.01929725 -0.12802191 -0.1882054 -0.28674048
-0.33624732 -0.30406576 -0.16070601 -0.11778309 -0.01265715 0.01608017 0.059436657 0.06838015
-0.096404865 -0.15150723 -0.26080847 -0.23775445 -0.23243932 -0.058416054 -0.074514106 2.6973607e-05
0.05231352 -0.17908865 -0.037233137 0.020234637 0.24625137 0.16436888 0.099704005 0.03008204
0.0427971 0.007604253 -0.091731 -0.22858472 -0.085679024 -0.03409306 0.054515973 0.14640497
0.02842047 -0.025334334 -0.082077 -0.073926605 -0.031510167 -0.08184823 -0.065925725 0.13934377
0.07618195 0.07325288 0.09912168 -0.020829774 -0.09594253 -0.07426326 -0.06904161 -0.08280514
-0.04125438 -0.109930985 0.34628385 0.33418772 0.2629469 0.10384816 -0.052783348 -0.19878502
-0.18185289 -0.18188164 -0.22875433 -0.1701428 -0.07226141 0.49576482 0.54791284 0.3798418
0.2696352 -0.059860393 -0.18606956 -0.26852277 -0.16759902 -0.27125356 -0.17747597 -0.15728311
0.5329385 0.605705 0.52732015 0.32952404 0.0061140237 -0.21150383 -0.19754195 -0.18204671
-0.23254487 -0.25968027 -0.19133782 0.41066933 0.5258409 0.43809375 0.34059486 -0.043703314
-0.24713482 -0.17771748 -0.17537706 -0.2534624 -0.18059704 -0.21135837 0.36644626 0.33995152
0.3199992 0.20355082 -0.024610048 -0.06571257 -0.14435388 -0.20484531 -0.2073967 -0.18381657
-0.17457932 0.3376995 0.28344563 0.21650977 0.13427798 0.011343224 -0.04592421 -0.035564456
-0.054180946 -0.11926099 -0.123533554 -0.16134739 0.17761348 0.11075567 0.118672974 0.15160501
0.10133359 0.026615469 0.0006749479 0.023024827 0.044247832 -0.083657406 -0.072287224 0.077637754
0.0133489715 0.014188125 0.1637305 0.13019834 0.090363145 0.06662974 0.10303533 0.012176352
0.00065529457 -0.0825474 -0.18478699 -0.10486432 -0.15807064 -0.11143829 0.0067564743 -0.052392054
-0.0148404855 0.023868263 0.07800429 -0.037045114 0.007389357 -0.12875068 -0.10508177 -0.058601122
00000000: db4f 4dbe afc9 793d 58ca 883e 8abf a53e
00000010: f9a1 cc3e 2e18 c83e 1e07 893e d95e fb3d
00000020: bbe9 8cbd 6a96 0bbe 1404 70be ce24 23be
00000030: 08e8 a63d ec7a ab3e 96ed 083f 8ad2 2b3f
00000040: e542 0c3f 168f da3e 3789 5b3e 169f c83b
00000050: 1d42 35bb f1f0 e4bd a317 8dbd 0180 243e
00000060: 36de cc3e fe62 373f ab75 473f 5048 213f
00000070: ca89 de3e b1e3 963e 892a 363e 07cd 34bc
00000080: 07cb 5ebd cc46 29bc 0d9a 103e a586 c33e
00000090: dc7a 0b3f a39c 1e3f add1 fb3e c5bc bf3e
000000a0: ee43 863e 4757 133e 7cef 113d 66b5 36bd
000000b0: 2137 c1bd 77d9 663d db4b 463e 1127 bd3e
000000c0: ccbf 9c3e e3aa 853e 9bbc 6e3e 6670 803d
000000d0: 6058 09bd b615 42bd ddb5 07be 96d6 50bd
000000e0: 53cd 993d 7999 593d 4b78 6c3d 6426 fb3c
000000f0: 61e3 873d 44a8 053d 03ec 8ebd ac58 97bd
00000100: 713c b2bd 1c65 d0bd ad8d 80bc 2e56 79bd
00000110: 7207 aabd f5a6 23be b91b 87be 09ec 8fbe
00000120: 1bb1 54be 29ce 0abe 7748 44be b625 95bd
00000130: 8425 dcbd 5d57 88bd bc25 a4bd 6e3f 21be
00000140: cbcc 8fbe 6e74 bfbe 57e0 cdbe 15bd 99be
00000150: 6aa6 58be 73b8 1fbe 60dd f1bd a320 9bbd
00000160: 63e5 323d c80a e5bd 0e6d 02be ca7a 8abe
00000170: 8b9a ccbe 4c7e cdbe e4cf c0be b112 90be
00000180: e673 3fbe d83d 34bd a0b8 e53a 81e3 6e3d
00000190: 4415 9e3c 2d18 03be ebb8 40be a6cf 92be
000001a0: 9c28 acbe 82ae 9bbe 1e90 24be 4338 f1bd
000001b0: ef5f 4fbc 90ba 833c da73 733d e40a 8c3d
000001c0: ea6f c5bd b624 1bbe b088 85be e775 73be
000001d0: 9304 6ebe ac45 6fbd da9a 98bd 6145 e237
000001e0: b446 563d 0463 37be c681 18bd 1cc3 a53c
000001f0: 5229 7c3e 5150 283e 9d31 cc3d 9c6e f63c
00000200: 034c 2f3d 192d f93b 76dd bbbd 1d12 6abe
00000210: 7c78 afbd 2aa5 0bbd 244c 5f3d 2feb 153e
00000220: 0cd2 e83c f389 cfbc fc17 a8bd d566 97bd
00000230: ce10 01bd 0ba0 a7bd 1104 87bd 22b0 0e3e
00000240: 4805 9c3d 9b05 963d 4f00 cb3d 34a3 aabc
00000250: 847d c4bd 5617 98bd b065 8dbd be95 a9bd
00000260: 5afa 28bd 7f23 e1bd 1e4c b13e a71a ab3e
00000270: faa0 863e 58ae d43d 5a33 58bd 4d8e 4bbe
00000280: a537 3abe 2e3f 3abe 933e 6abe ea39 2ebe
00000290: cafd 93bd e3d4 fd3e 0444 0c3f a07a c23e
000002a0: a00d 8a3e 2c30 75bd 0589 3ebe d17b 89be
000002b0: 149f 2bbe bfe1 8abe 43bc 35be d30e 21be
000002c0: a86e 083f 7c0f 1b3f 74fe 063f 60b7 a83e
000002d0: 2658 c83b 7694 58be 7048 4abe 746a 3abe
000002e0: 3e20 6ebe d0f4 84be 10ee 43be 4043 d23e
000002f0: 829d 063f d34d e03e 7362 ae3e 3f02 33bd
00000300: e910 7dbe 92fb 35be 0b96 33be d3c5 81be
00000310: 6eee 38be 546e 58be d89e bb3e 200e ae3e
00000320: efd6 a33e a06f 503e 039b c9bc 5094 86bd
00000330: 81d1 13be f8c2 51be cd5f 54be 693a 3cbe
00000340: ecc4 32be f3e6 ac3e c91f 913e bdb4 5d3e
00000350: 2b80 093e eed8 393c 061b 3cbd 09ac 11bd
00000360: d7ec 5dbd 1b3f f4bd 29ff fcbd 4038 25be
00000370: 4fe0 353e ded3 e23d d10a f33d 583e 1b3e
00000380: fc87 cf3d af08 da3c fdee 303a 909e bc3c
00000390: 373d 353d 9354 abbd 530b 94bd 8b00 9f3d
000003a0: a5b5 5a3c 4f75 683c f8a8 273e b752 053e
000003b0: 5010 b93d 2c75 883d 3004 d33d 527f 473c
000003c0: 13c8 2b3a 9c0e a9bd cd38 3dbe 1bc3 d6bd
000003d0: 45dd 21be c239 e4bd 6a65 dd3b 0d99 56bd
000003e0: 8225 73bc 6087 c33c b7c0 9f3d 9ebc 17bd
000003f0: 6b22 f23b 38d7 03be 1c35 d7bd bb07 70bd

features.0.bias f4 [16]
-0.20881163 -0.27180094 -0.7138259 -0.003414576 0.057586215 -0.0023719715 -0.49855566 -0.45692888
-0.5395018 -0.4550405 -0.4995145 -0.16962343 -0.33946186 -0.41785607 0.03980311 0.007891742
00000000: b7d2 55be 7e29 8bbe 4bbd 36bf 14c7 5fbb
00000010: 86df 6b3d 1473 1bbb b042 ffbe 95f2 e9be
00000020: ca1c 0abf 12fb e8be 5dc0 ffbe c4b1 2dbe
00000030: f2cd adbe 3bf1 d5be 9608 233d 5d4c 013c

features.2.weight f4 [16, 16, 5, 5]
0.016687889 0.10740786 -0.009890027 -0.06585542 -0.38165092 -0.3741966 -0.5342485 -0.48257035
-0.5267355 -0.5859916 -0.47797212 -0.4445023 -0.3019865 -0.28479347 -0.2934682 -0.34707737
-0.5049824 -0.23971176 -0.2611995 -0.26696488 -0.22577858 -0.12485177 -0.2260833 -0.41210282
-0.46744832 0.06524736 0.13866973 0.15065104 -0.064390875 -0.25515386 -0.09765048 0.043647394
0.049463253 -0.10685591 -0.1145346 -0.086783186 -0.10474763 -0.11555328 -0.13680929 -0.22107516
-0.061692882 -0.07151052 -0.17417754 -0.16677879 -0.51610315 -0.030691529 -0.13459219 -0.17746617
-0.3124294 -0.4330198 -0.2185726 -0.16798626 -0.1431179 0.02293333 -0.0071042334 -0.14965405
-0.13616675 -0.15103985 -0.2513808 -0.13877845 -0.13675506 -0.06629728 -0.1894446 -0.09168932
-0.057981268 -0.062105346 -0.16413149 -0.29286206 -0.04369655 0.1083924 -0.0126884505 0.006723866
-0.11223536 0.011032744 0.027435781 0.2050213 0.21439846 0.1338766 -0.11537918 -0.31770486
0.18026978 0.15920135 0.039672013 -0.27919236 -0.39496386 0.17302042 0.1294398 0.08331644
-0.16944766 -0.4073433 0.23640138 0.23675308 0.05745986 -0.16049922 -0.33211675 0.2391493
0.21353538 0.079262525 -0.059362255 -0.2766962 0.056607854 0.063173965 0.035253566 0.074786074
0.0024920572 -0.22968604 0.019763071 0.09521991 0.21815866 0.12883455 -0.27217257 -0.07371812
0.0836809 0.079338886 0.055353574 -0.28622466 -0.14942093 -0.09316843 -0.003090473 0.015094073
-0.18667063 -0.18330744 -0.17881623 -0.15351658 -0.14212522 0.31480694 0.36032578 0.32116342
0.31211978 0.17570259 0.12100584 0.18830605 0.14862251 0.06961652 0.1400377 0.018430153
0.019742254 0.119474575 0.030839901 -0.09201491 -0.15051575 -0.2058092 -0.059669595 0.0070739416
-0.039245106 -0.3517386 -0.16548638 -0.17567801 -0.27623767 -0.19370045 -0.10785056 -0.27784264
-0.2005837 -0.25374717 -0.13911285 -0.064186804 -0.1008696 -0.04368741 -0.06291314 -0.10319869
0.067417935 -0.037390787 -0.034511555 0.04474156 0.022406146 0.101306565 0.14357875 0.090176255
0.101802774 0.05549657 0.0835703 0.23263218 0.11434679 0.2149569 0.12736222 0.0056314087
-0.13153292 -0.076603666 -0.12652586 -0.073318705 -0.008256815 -0.064464204 0.019685857 -0.106506504
-0.03814193 -0.032994643 0.09395782 0.10259855 0.119384766 -0.010329197 0.08998693 0.03426329
0.06095352 0.09807405 0.065001674 0.07626004 0.08728082 0.19879481 0.10015255 0.1646881
-0.12890297 -0.10399737 -0.19849531 -0.13726553 -0.25324872 -0.14560324 -0.11721221 -0.19395728
-0.28978145 -0.4248447 -0.16702901 -0.2515928 -0.29131427 -0.25392553 -0.21160145 -0.2339293
-0.23808986 -0.26270074 -0.131829 -0.29221675 -0.1808234 -0.15254301 -0.073671974 -0.09433969
-0.10412291 -0.6644776 -0.5315407 -0.6078815 -0.50749195 -0.28496206 -0.6557499 -0.8505343
-0.93759024 -0.56590414 -0.38285342 -0.2007814 -0.047407206 -0.36465457 -0.33160314 -0.3903444
0.032671116 0.056765076 0.026525551 0.12445943 0.26665613 -0.1229898 -0.007937977 0.014708488
0.15679178 0.23843528 -0.049132444 0.056814216 0.07346122 -0.0369945 -0.06389313 -0.05945818
00000000: 0ab5 883c a7f8 db3d c809 22bc 35df 86bd
00000010: c067 c3be b296 bfbe 82c4 08bf 7613 f7be
00000020: 23d8 06bf 8c03 16bf c3b8 f4be ce95 e3be
00000030: f99d 9abe 73d0 91be 7741 96be 20b4 b1be
00000040: 8746 01bf 0077 75be f1bb 85be 9faf 88be
00000050: 8032 67be 49b2 ffbd 6182 67be 24ff d2be
00000060: 6355 efbe 68a0 853d 70ff 0d3e 4444 1a3e
00000070: 5ddf 83bd 87a3 82be fafc c7bd 9cc7 323d
00000080: fb99 4a3d 45d7 dabd 1e91 eabd 62bb b1bd
00000090: ed85 d6bd 33a7 ecbd bc17 0cbe 8761 62be
000000a0: adb1 7cbd 1c74 92bd 995b 32be 0fc8 2abe
000000b0: 561f 04bf cd6c fbbc 89d2 09be b1b9 35be
000000c0: bff6 9fbe c5b4 ddbe 7fd1 5fbe 9704 2cbe
000000d0: 808d 12be aede bb3c a1ca e8bb e93e 19be
000000e0: 4c6f 0bbe 31aa 1abe fcb4 80be f01b 0ebe
000000f0: 8509 0cbe dec6 87bd c4fd 41be 9cc7 bbbd
00000100: c47d 6dbd 2d62 7ebd 1612 28be 04f2 95be
00000110: 27fb 32bd d6fc dd3d 38e3 4fbc e053 dc3b
00000120: a7db e5bd afc2 343c 01c1 e03c 1bf1 513e
00000130: 458b 5b3e f316 093e eb4b ecbd 36aa a2be
00000140: a498 383e ae05 233e 1f7f 223d 4df2 8ebe
00000150: b438 cabe 442c 313e de8b 043e cfa1 aa3d
00000160: b083 2dbe 4d8f d0be 3413 723e 666f 723e
00000170: 085b 6b3d e859 24be 350b aabe 8ee3 743e
00000180: 05a9 5a3e 6454 a23d d625 73bd 20ab 8dbe
00000190: a3dd 673d 5a61 813d 0b66 103d 7129 993d
000001a0: c851 233b d132 6bbe 2ae6 a13c a802 c33d
000001b0: fc64 5f3e 34ed 033e 345a 8bbe 87f9 96bd
000001c0: e460 ab3d 6d7c a23d 6eba 623d 0a8c 92be
000001d0: cd01 19be 17cf bebd 8889 4abb 214d 773c
000001e0: 9626 3fbe f2b4 3bbe 9a1b 37be 7333 1dbe
000001f0: 4689 11be 602e a13e 9f7c b83e 886f a43e
00000200: 2ace 9f3e 61eb 333e e9d1 f73d 4dd3 403e
00000210: 8030 183e 1b93 8e3d 0b66 0f3e d5fa 963c
00000220: 82ba a13c 16af f43d f6a3 fc3c 5072 bcbd
00000230: cd20 1abe a6bf 52be 1b68 74bd 86cc e73b
00000240: 7abf 20bd 1517 b4be 4375 29be f0e4 33be
00000250: 066f 8dbe 6959 46be c1e0 dcbd 6441 8ebe
00000260: d065 4dbe 26eb 81be 9973 0ebe 5f74 83bd
00000270: b994 cebd 92f1 32bd 9bd8 80bd d659 d3bd
00000280: 6a12 8a3d 1527 19bd fd5b 0dbd ed42 373d
00000290: 188d b73c d179 cf3d 4f06 133e 54ae b83d
000002a0: f97d d03d 5f50 633d e826 ab3d 2137 6e3e
000002b0: a62e ea3d a91d 5c3e 3e6b 023e ae87 b83b
000002c0: 91b0 06be 62e2 9cbd ff8f 01be 1e28 96bd
000002d0: 9847 07bc cf05 84bd 3c44 a13c 1520 dabd
000002e0: b63a 1cbd 6425 07bd f56c c03d 301f d23d
000002f0: 0080 f43d cb3b 29bc 114b b83d aa57 0c3d
00000300: 66aa 793d 0cdb c83d 991f 853d 392e 9c3d
00000310: 49c0 b23d de90 4b3e c81c cd3d ffa3 283e
00000320: 24ff 03be 93fc d4bd 5b42 4bbe 568f 0cbe
00000330: d1a9 81be 0419 15be f50c f0bd bd9c 46be
00000340: 3c5e 94be 3f85 d9be a709 2bbe c5d0 80be
00000350: 2527 95be 8702 82be 0dae 58be 2a8b 6fbe
00000360: d4cd 73be b680 86be 2efe 06be 6f9d 95be
00000370: c529 39be 3c34 1cbe 55e1 96bd 2b35 c1bd
00000380: 643e d5bd 341b 2abf 0d13 08bf 1f9e 1bbf
00000390: feea 01bf 8ce6 91be 3adf 27bf 9ebc 59bf
000003a0: ea05 70bf 18df 10bf 5d05 c4be a499 4dbe
000003b0: 0f2e 42bd 01b4 babe e3c7 a9be 39db c7be
000003c0: 26d2 053d 7f82 683d 1d4c d93c 96e4 fe3d
000003d0: 2787 883e 14e2 fbbd 4a0e 02bc dffb 703c
000003e0: 068e 203e 6128 743e 1a3f 49bd 06b6 683d
000003f0: d672 963d 8b87 17bd 67da 82bd 6c8a 73bd

features.2.bias f4 [16]
0.02821465 -0.12451914 -0.2117222 -0.3119116 -0.03042821 -0.1301531 -0.116309054 0.02749941
-0.2651829 -0.22837742 -0.054218296 0.31698436 -0.19015764 -0.1881275 0.07912523 -0.29524034
00000000: 6922 e73c e403 ffbd b4cd 58be e1b2 9fbe
00000010: 9544 f9bc db46 05be 7133 eebd 7146 e13c
00000020: 0ec6 87be c5db 69be 0114 5ebd c64b a23e
00000030: afb8 42be 7fa4 40be 690c a23d be29 97be

features.5.weight f4 [16, 16, 5, 5]
0.013002713 -0.05118427 -0.273781 -0.37767953 -0.2671329 0.04283999 0.09856154 0.045987986
-0.115965 -0.22931743 0.24680987 0.040403686 0.098247916 0.041712653 -0.094474964 0.08706347
0.090261914 0.044478614 -0.0055182297 -0.03982468 0.19667935 -0.0071576172 0.071523264 0.018127339
0.07139588 -0.033261467 -0.029574785 -0.055616282 -0.10786601 0.025095154 -0.05073137 -0.04438431
0.071165346 -0.045703046 0.029271558 -0.027791986 -0.039322436 0.01939258 0.037880193 0.0132161
-0.03391358 -0.005700482 0.038432118 0.056776058 -0.083497286 -0.095860936 -0.06493582 -0.08245132
0.07177084 -0.08626108 0.096604094 -0.036644198 -0.029282447 -0.24482358 -0.18776202 -0.013303176
0.055321284 -0.010602289 -0.0618306 -0.110031754 -0.024281994 -0.03234338 0.086975746 0.01837685
-0.086683914 -0.013960377 -0.042304456 -0.00546753 0.21837881 0.010485862 0.07216004 -0.06969788
-0.113857195 0.052580826 -0.01906468 -0.011719983 -0.07430284 -0.0026293022 -0.09013519 -0.024455605
-0.031035354 -0.06537224 -0.12878571 0.0030679067 -0.059835073 -0.16028023 -0.057692163 -0.03983913
-0.14609905 -0.11950248 -0.13984045 -0.031333715 -0.05038598 -0.1098461 -0.076889426 -0.01806789
-0.02598214 -0.042519 -0.038092785 0.01988935 -0.1374711 -0.14996377 -0.029282937 -0.145164
0.0243209 -0.19314843 -0.085976146 0.02069938 0.10833381 -0.039612528 0.23529582 0.16291268
0.16642712 0.11766296 0.20755392 -0.03900648 -0.080027185 -0.108836584 -0.10624842 -0.04420897
-0.01885289 0.14554428 0.044808894 -0.05806978 -0.027550098 -0.04318913 -0.062321153 0.04869802
0.0585332 -0.030591244 0.06925753 -0.022017077 -0.022723358 0.017858159 0.008002501 0.05640478
0.014619134 0.022675611 0.069717176 0.028587364 0.055662 -0.029669926 -0.012912849 0.028732065
-0.018507255 -0.15305059 -0.093471125 0.07971101 0.078919515 -0.032793507 -0.072038576 0.018351648
0.016058693 -0.029185478 0.0012493207 -0.04855379 -0.0061223153 -0.02783943 -0.07235916 -0.09103735
-0.1196316 -0.08376133 -0.06993416 -0.0061469516 0.034711715 -0.020825855 0.026497519 -0.045338098
0.0003986911 -0.14395769 -0.014154443 -0.08736527 -0.057282705 0.020468071 0.021934785 -0.104703404
-0.049879745 -0.54074526 -0.23173589 -0.09501318 0.06010778 0.15867692 -0.76107895 -1.4660538
-0.08744042 -0.054577656 0.12296042 0.02422403 -0.3980977 -0.059931736 -0.016973775 -0.055454157
0.03897276 0.20661895 0.040876064 0.08130647 -0.21492594 -0.025372412 -0.10239172 -0.11973901
0.3000405 -0.10420511 0.13785079 -0.23510593 -0.5594301 0.10871067 -0.29182097 0.09764254
0.14482237 -0.39208332 -0.12396443 -0.14702676 0.19037744 0.08383949 -0.051527593 -0.28148258
-0.35735944 -0.16443868 -0.15084206 -0.3543836 -0.30726147 -0.22583285 0.06307028 -0.14579748
-0.07941278 -0.05936206 -0.06137403 -0.13670854 0.07486832 0.021783158 0.068405405 0.027807072
-0.1155028 0.05315428 -0.08878879 -0.07235453 -0.095387995 -0.07293693 0.051943704 -0.011273657
-0.090127945 -0.043688793 -0.17433253 0.13878465 -0.05132004 -0.058328148 0.025335448 -0.102961995
0.052949436 0.0011113854 0.13333489 -0.031994 0.01209497 0.1568265 0.035348754 -0.07060505
00000000: 5509 553c 99a6 51bd 062d 8cbe 365f c1be
00000010: a5c5 88be fc78 2f3d a2da c93d e65d 3c3d
00000020: 0f7f edbd 30d2 6abe babb 7c3e 567e 253d
00000030: 3436 c93d e3da 2a3d 177c c1bd 554e b23d
00000040: 3ddb b83d 352f 363d 44d2 b4bb 341f 23bd
00000050: 5066 493e 728a eabb ca7a 923d c97f 943c
00000060: 0138 923d 2d3d 08bd d246 f2bc e6cd 63bd
00000070: dbe8 dcbd 5a94 cd3c b2cb 4fbd 52cc 35bd
00000080: 23bf 913d 1e33 3bbd e8ca ef3c 05ac e3bc
00000090: 9010 21bd 30dd 9e3c 4328 1b3d 5788 583c
000000a0: f7e8 0abd 1ccb babb ff6a 1d3d 038e 683d
000000b0: a000 abbd bd52 c4bd 12fd 84bd 3ddc a8bd
000000c0: 97fc 923d a6a9 b0bd 5ed8 c53d 3a18 16bd
000000d0: bee1 efbc 08b3 7abe b044 40be 90f5 59bc
000000e0: 9298 623d 39b5 2dbc 1542 7dbd 5458 e1bd
000000f0: 08eb c6bc 7e7a 04bd 5720 b23d 0c8b 963c
00000100: 5687 b1bd 11ba 64bc 7047 2dbd f728 b3bb
00000110: b29e 5f3e e5cc 2b3c a5c8 933d c3bd 8ebd
00000120: f62d e9bd fe5e 573d 882d 9cbc 2c05 40bc
00000130: 162c 98bd 5f50 2cbb cc98 b8bd 1f57 c8bc
00000140: db3d febc e2e1 85bd 67e0 03be ef0e 493b
00000150: 9f15 75bd 8020 24be 9e4e 6cbd 5b2e 23bd
00000160: fd9a 15be b7bd f4bd 5632 0fbe c857 00bd
00000170: 8861 4ebd fef6 e0bd 3478 9dbd 1d03 94bc
00000180: 7fd8 d4bc 6728 2ebd 2e07 1cbd fdee a23c
00000190: 39c5 0cbe 1a90 19be c5e2 efbc dfa5 14be
000001a0: a03c c73c b4c8 45be 4314 b0bd bf91 a93c
000001b0: 1ede dd3d bf40 22bd 63f1 703e 95d2 263e
000001c0: df6b 2a3e 47f9 f03d 0489 543e 42c5 1fbd
000001d0: 4be5 a3bd b7e5 debd c698 d9bd 7714 35bd
000001e0: 6071 9abc 8f09 153e 8889 373d 94da 6dbd
000001f0: beb0 e1bc 16e7 30bd 7744 7fbd 9377 473d
00000200: 82c0 6f3d 7d9a fabc e4d6 8d3d 285d b4bc
00000210: 5626 babc 464b 923c ec1c 033c b308 673d
00000220: 1885 6f3c 34c2 b93c e1c7 8e3d 0c30 ea3c
00000230: d6fd 633d 580e f3bc 6a90 53bc 825f eb3c
00000240: 879c 97bc 4bb9 1cbe ca6d bfbd 873f a33d
00000250: 8ea0 a13d 7c52 06bd f688 93bd 3256 963c
00000260: 858d 833c 6216 efbc 3fc0 a33a 57e0 46bd
00000270: b49d c8bb 840f e4bc 0a31 94bd ca71 babd
00000280: 6a01 f5bd 0f8b abbd a439 8fbd 5e6c c9bb
00000290: df2d 0e3d fc9a aabc 5311 d93c 71b4 39bd
000002a0: 6a07 d139 a569 13be 09e8 67bc 90ec b2bd
000002b0: 45a1 6abd a8ac a73c 94b0 b33c bd6e d6bd
000002c0: b44e 4cbd 486e 0abf 2c4c 6dbe 4596 c2bd
000002d0: 9333 763d 347c 223e 12d6 42bf a7a7 bbbf
000002e0: f713 b3bd d28c 5fbd acd2 fb3d 7971 c63c
000002f0: 76d3 cbbe fb7a 75bd 960c 8bbc e623 63bd
00000300: e7a1 1f3d eb93 533e a96d 273d 0284 a63d
00000310: 8c15 5cbe ced9 cfbc c0b2 d1bd ba39 f5bd
00000320: e99e 993e 7d69 d5bd c228 0d3e 9cbf 70be
00000330: d036 0fbf b3a3 de3d 8f69 95be d0f8 c73d
00000340: 514c 143e 25bf c8be 10e1 fdbd 2f8e 16be
00000350: 4ef2 423e 0ab4 ab3d 990e 53bd 7c1e 90be
00000360: d1f7 b6be 9d62 28be 5776 1abe c471 b5be
00000370: 6051 9dbe ba40 67be fe2a 813d ef4b 15be
00000380: 2ba3 a2bd a225 73bd 5663 7bbd 53fd 0bbe
00000390: 9054 993d 9872 b23c 2218 8c3d a8cb e33c
000003a0: bb8c ecbd 4db8 593d e6d6 b5bd 9d2e 94bd
000003b0: c85a c3bd f55f 95bd ecc2 543d 25b5 38bc
000003c0: 0095 b8bd 05f3 32bd 3a84 32be 901d 0e3e
000003d0: f634 52bd 7fe9 6ebd 498c cf3c bddd d2bd
000003e0: 82e1 583d e8ab 913a f188 083e 240c 03bd
000003f0: fb29 463c 2097 203e dbc9 103d 6199 90bd

features.5.bias f4 [16]
0.1176748 0.0819389 0.39265347 0.05305081 -0.08432467 -0.109369814 -0.04908243 0.21996716
-0.0149861425 -0.49023473 -0.20980838 0.037001017 0.1415544 -0.1856225 0.14860308 -0.4179879
00000000: 7cff f03d 95cf a73d e009 c93e ce4b 593d
00000010: 6ab2 acbd 48fd dfbd a80a 49bd 123f 613e
00000020: 7088 75bc 0c00 fbbe 02d8 56be 618e 173d
00000030: a3f3 103e d313 3ebe 682b 183e 8302 d6be

features.7.weight f4 [16, 16, 5, 5]
-0.21335894 0.14762929 -0.34555185 -0.3324007 -0.43310797 -0.29582027 -0.33276716 0.03652686
-0.22723576 -0.3121105 -0.19212623 -0.32791266 0.038655497 -0.09254771 -0.11262208 -0.20351657
-0.013943528 -0.07757124 0.11284884 -0.19427164 -0.22765973 -0.038155332 -0.09455924 -0.12741357
-0.018210007 -0.2053248 -0.036873177 -0.20820747 -0.086777456 -0.14268112 -0.021833973 -0.08976958
-0.20940253 -0.24688561 -0.033934884 -0.05332994 0.043784972 -0.22483061 -0.107143275 -0.0911162
-0.11964807 0.0151269045 0.10510467 -0.24056219 -0.013493803 0.036112428 0.055932935 -0.04113448
-0.19983841 -0.17041008 -0.15118957 -0.37261853 -0.26278365 -0.049518812 -0.02528192 0.20156594
0.020889854 0.11136523 -0.27905896 -0.10109385 0.025393827 -0.006656108 -0.2987738 -0.29882258
-0.3195741 -0.19750234 -0.060054388 -0.118011676 -0.3386792 -0.34372997 -0.4671037 -0.06340089
0.047757614 -0.08272321 -0.063753255 -0.35110983 -0.13508457 -0.051668588 0.07812284 -0.21836042
-0.4268307 -0.22214349 -0.13033578 -0.0551057 0.041033518 -0.24501184 -0.1370787 -0.16094354
0.0021813752 0.1199366 0.044790335 0.10434202 -0.21054284 -0.21682763 -0.15593968 -0.24983396
-0.062372357 0.06138983 0.10780291 -0.036570847 0.058068804 0.0026766248 -0.07682853 -0.07040321
0.06716619 0.028261323 -0.02223381 -0.04455484 -0.037581217 -0.10407391 -0.08280888 -0.07672725
0.021283738 0.025447072 -0.028662328 -0.049313676 0.012411983 -0.04980368 -0.09452931 0.015192363
0.04394426 -0.14023966 -0.10474432 0.019422852 -0.08852631 -0.07094275 -0.096415095 -0.027800348
-0.078544624 -0.19388324 0.03682317 -0.09253771 0.0080699455 -0.101417914 -0.009457531 -0.12607841
-0.16933475 -0.02021168 -0.18312652 -0.11049556 -0.036644164 0.04565172 -0.03433618 -0.046472564
0.0649088 -0.059922583 0.026254611 -0.1358582 0.0011769312 -0.01762782 -0.051255915 -0.15050623
-0.025318546 0.021979032 0.039513055 -0.14625439 -0.21463923 0.050891213 -0.087220155 -0.03243389
-0.108182915 -0.13998725 0.087573335 -0.08271094 0.0032490802 -0.14903687 0.1442924 0.12093548
-0.14154428 0.17827456 -0.07624684 0.07799052 0.11983636 0.080949455 0.12928618 -0.17276356
-0.2115059 -0.22035666 -0.32631043 -0.3707443 -0.2054889 -0.007435928 -0.17735371 -0.37355778
-0.11173021 -0.015297925 -0.05900232 -0.23756875 -0.0141908135 0.054687258 0.0026814777 0.001115437
0.06929527 -0.16591223 -0.29716545 -0.07405638 -0.16714498 -0.20408465 -0.071269974 -0.28681418
-0.043373182 0.032766458 0.19100368 0.17914474 -0.10111943 -0.046595506 0.042971652 -0.012205753
0.04764796 -0.07650727 0.06295322 -0.041145142 0.07696503 -0.13886426 0.052942317 -0.052443698
0.057345122 -0.18173178 -0.1224259 0.14253157 -0.26374093 0.10313821 -0.09393788 -0.15167905
-0.16674444 -0.16271925 -0.13698803 -0.07749061 0.005252684 0.042958897 -0.07144756 -0.11332371
0.09637032 -0.047474224 -0.017196998 -0.019252189 -0.10948812 -0.082131915 0.0126773715 0.21942726
-0.08341484 -0.07708681 -0.1568394 0.07443767 0.2060418 -0.22779801 -0.10672289 -0.09970699
-0.017560542 0.004440582 0.02366383 -0.11183586 -0.053806275 -0.04614716 -0.0044127544 -0.09782162
00000000: c47a 5abe 222c 173e 2cec b0be 6d30 aabe
00000010: 54c0 ddbe c175 97be 7560 aabe 309d 153d
00000020: 7eb0 68be f3cc 9fbe bdbc 44be 2be4 a7be
00000030: 3a55 1e3d a789 bdbd 68a6 e6bd a666 50be
00000040: 6573 64bc acdd 9ebd 4b1d e73d 25ef 46be
00000050: a21f 69be c448 1cbd 46a8 c1bd b478 02be
00000060: 272d 95bc aa40 52be 5408 17bd 5734 55be
00000070: 61b8 b1bd 001b 12be 29dd b2bc 1dd9 b7bd
00000080: 9e6d 56be 95cf 7cbe 4eff 0abd 7f70 5abd
00000090: df57 333d ff39 66be ef6d dbbd 219b babd
000000a0: 0c0a f5bd d6d6 773c 1e41 d73d ef55 76be
000000b0: 1d15 5dbc a0ea 133d ef19 653d a17c 28bd
000000c0: 71a2 4cbe fb7f 2ebe 70d1 1abe dbc7 bebe
000000d0: 948b 86be 3dd4 4abd 071c cfbc 4d67 4e3e
000000e0: 3321 ab3c 7413 e43d d1e0 8ebe 4b0a cfbd
000000f0: b706 d03c 7b1b dabb e1f8 98be 46ff 98be
00000100: 379f a3be 0e3e 4abe 97fb 75bd 1bb0 f1bd
00000110: 5c67 adbe 60fd afbe 3728 efbe 53d8 81bd
00000120: 7d9d 433d c96a a9bd 1191 82bd abc4 b3be
00000130: 9c53 0abe 71a2 53bd defe 9f3d e099 5fbe
00000140: 8e89 dabe 9579 63be be76 05be 84b6 61bd
00000150: c312 283d 62e4 7abe 5c5e 0cbe 62ce 24be
00000160: 67f5 0e3b 52a1 f53d 1276 373d 45b1 d53d
00000170: 8b98 57be 1008 5ebe a7ae 1fbe 79d4 7fbe
00000180: 287a 7fbd e773 7b3d c6c7 dc3d 50cb 15bd
00000190: 8ed9 6d3d 506a 2f3b 4758 9dbd 8f2f 90bd
000001a0: 6d8e 893d 4a84 e73c ae23 b6bc 237f 36bd
000001b0: c3ee 19bd b424 d5bd b497 a9bd 2d23 9dbd
000001c0: 3c5b ae3c 6176 d03c 42cd eabc 23fd 49bd
000001d0: a15b 4b3c f2fe 4bbd 9598 c1bd 64e9 783c
000001e0: e5fe 333d fc9a 0fbe 3184 d6bd ac1c 9f3c
000001f0: 484d b5bd 6f4a 91bd 4775 c5bd 8ebd e3bc
00000200: 01dc a0bd 5489 46be e4d3 163d 6984 bdbd
00000210: ce37 043c 32b4 cfbd c3f3 1abc b31a 01be
00000220: 1766 2dbe f792 a5bc 8585 3bbe 7f4b e2bd
00000230: 3118 16bd 4cfd 3a3d 18a4 0cbd 045a 3ebd
00000240: e8ee 843d 6271 75bd e913 d73c 691e 0bbe
00000250: 4243 9a3a 3868 90bc b9f1 51bd 4e1e 1abe
00000260: d768 cfbc 5f0d b43c 71d8 213d b6c3 15be
00000270: 63ca 5bbe 4e73 503d 7ba0 b2bd 66d9 04bd
00000280: 018f ddbd d158 0fbe a659 b33d 5a64 a9bd
00000290: 85ee 543b 1f9d 18be 63c1 133e 05ad f73d
000002a0: fcf0 10be 9b8d 363e 4e27 9cbd 7eb9 9f3d
000002b0: c46c f53d d4c8 a53d 9963 043e eee8 30be
000002c0: 0195 58be 2da5 61be 2912 a7be 32d2 bdbe
000002d0: af6b 52be 16a9 f3bb 369c 35be f742 bfbe
000002e0: cfd2 e4bd 26a4 7abc 6bac 71bd 3945 73be
000002f0: 9680 68bc bfff 5f3d bbbb 2f3b db33 923a
00000300: aeea 8d3d e5e4 29be 1226 98be dfaa 97bd
00000310: 0e28 2bbe 91fb 50be fef5 91bd 4fd9 92be
00000320: 14a8 31bd 1f36 063d 7896 433e b871 373e
00000330: b417 cfbd eeda 3ebd 0b03 303d a3fa 47bc
00000340: 822a 433d d8af 9cbd 9eed 803d cf87 28bd
00000350: d79f 9d3d 6f32 0ebe 0bda 583d 34cf 56bd
00000360: b8e2 6a3d e517 3abe 6eba fabd ccf3 113e
00000370: 0d09 87be 203a d33d 8162 c0bd c151 1bbe
00000380: 0ebf 2abe e09f 26be 9746 0cbe 66b3 9ebd
00000390: b51e ac3b abf5 2f3d 1953 92bd 4316 e8bd
000003a0: cd5d c53d 5574 42bd b8e0 8cbc c4b6 9dbc
000003b0: 4f3b e0bd c734 a8bd c0b4 4f3c 8ab1 603e
000003c0: 66d5 aabd b0df 9dbd 829a 20be c772 983d
000003d0: 9ffc 523e e243 69be 8891 dabd 2e33 ccbd
000003e0: 20db 8fbc 4d82 913b a6da c13c 330a e5bd
000003f0: f863 5cbd ce04 3dbd de98 90bb b456 c8bd

features.7.bias f4 [16]
-0.099231444 -0.057416983 0.09430535 -0.019905023 0.06825835 -0.556615 -0.025443068 0.010018838
0.19824894 -0.017518729 0.034665253 0.06874698 0.0017728417 -0.010070692 -0.48960543 0.020280099
00000000: db39 cbbd 122e 6bbd 2a23 c13d dc0f a3bc
00000010: 09cb 8b3d 527e 0ebf fb6d d0bc 0d26 243c
00000020: c501 4b3e 7083 8fbc 27fd 0d3d 37cb 8c3d
00000030: b25e e83a 8bff 24bc 90ad fabe 7322 a63c

features.10.weight f4 [32, 16, 5, 5]
0.008025814 -0.10379316 0.03260683 0.16488974 0.095680065 -0.050469067 -0.050329298 -0.12358867
0.010631682 0.12969232 -0.05954759 -0.070274696 -0.094954506 0.07843503 0.104805216 -0.050573856
-0.062962554 -0.06356806 -0.11708237 0.2086979 -0.059689198 0.03291278 -0.15746671 -0.091451444
0.023707077 -0.08390264 -0.3487409 -0.0007269023 0.17316249 0.22146715 -0.33235475 -0.6159796
-0.075924605 0.16984783 -0.23947245 -0.18583788 -0.18353334 -0.09149059 -0.29023638 -0.5455544
-0.14818326 -0.26519683 0.08422866 -0.6782122 -0.37321338 -0.27178988 0.118704185 -0.0032108019
-0.2593633 -0.4772093 0.013159171 0.2084758 -0.3611396 0.00652022 0.1324346 0.13523187
0.110446535 -0.3561801 0.022858774 0.2414187 -0.092482425 -0.015318983 0.0141598405 0.19458586
0.10865443 0.0001512899 -0.05782015 0.44389254 -0.46620703 0.12602544 0.042820066 0.14626583
0.1464702 0.22735403 0.008498093 0.08591204 0.26052284 0.072001845 -0.053676765 0.09978018
0.07008134 0.2596413 -0.29292125 0.065388694 0.021842452 -0.052471332 0.107106395 -0.02627332
0.061864458 -0.146497 0.0659157 0.074928656 0.31714508 -0.00078690075 0.09494376 0.11294904
-0.018542498 0.42382297 0.043368656 -0.089701064 -0.37351954 -0.13587345 0.018563526 0.399368
0.241828 -0.37014633 -0.18051559 -0.12562308 0.33065212 0.07563439 -0.08692434 0.2374811
-0.42099184 -0.16295157 -0.1658574 -0.20869528 0.11546724 -0.26125762 -0.42701527 -0.25099093
-0.35021392 0.01871413 -0.04398825 -0.44960067 -0.5010568 0.015221265 0.27211085 0.15858227
-0.029060138 -0.26810598 0.013820096 0.14275089 0.42607665 -0.14577758 0.04215147 0.30312485
0.1343368 0.05473079 0.24032739 -0.14467376 -0.23359065 0.10876919 -0.1619252 0.15349914
-0.1578403 0.10711684 -0.15094699 -0.012288137 -0.24230288 -0.31589684 -0.4288783 0.0075141336
-0.15893257 -0.2321223 -0.5284736 -0.5495482 0.18987674 -0.04643807 -0.14364585 -0.3253094
-0.72439843 0.32551518 0.20800272 -0.20819654 -0.26356652 -0.7007922 0.099005066 0.02123712
-0.38079792 -0.28629857 -0.58175415 0.12913792 0.21563618 0.028354874 -0.06290993 -0.061672274
-0.027159056 0.3967962 -0.0027558855 -0.17013605 -0.10912628 0.114168584 0.22874542 -0.09542553
0.027450891 -0.35061204 0.1796489 -0.3797806 0.19383346 0.05955288 -0.11726381 0.046030108
0.011638488 0.3165273 -0.30864272 -0.05532294 -0.08801112 0.2643801 -0.055910893 -0.1464479
-0.018676419 0.2002009 0.277596 0.03977703 0.18953015 -0.0029214567 0.19551568 0.7665052
0.3647089 0.4619797 0.22787155 0.114276424 0.3378344 -0.14528547 0.119735606 0.3806599
0.013327058 0.20305581 0.21264784 0.26832023 0.26048812 0.11255395 0.45542938 0.3386708
0.13465367 -0.1366584 0.38707605 0.31528625 0.17301054 -0.13549761 -0.16412511 0.21912861
0.3786866 0.09924096 -0.12848623 -0.18707462 -0.10370002 0.46196377 0.06520089 -0.16596207
-0.2306914 0.048492018 0.27614218 -0.19019103 0.08064813 -0.19806628 0.1027938 0.083454445
0.03072243 -0.30625555 0.15931582 0.010824864 0.04969903 0.072008945 0.38968804 0.23733428
00000000: b47e 033c 8291 d4bd bd8e 053d dbd8 283e
00000010: e9f3 c33d a7b8 4ebd 1826 4ebd 0e1c fdbd
00000020: 8230 2e3c 10ce 043e 2ce8 73bd 2eec 8fbd
00000030: 8277 c2bd 8ca2 a03d 1ea4 d63d 8826 4fbd
00000040: 83f2 80bd f92f 82bd e2c8 efbd e7b4 553e
00000050: a97c 74bd 8dcf 063d f43e 21be e54a bbbd
00000060: 5835 c23c 26d5 abbd 2b8e b2be 968d 3eba
00000070: 8251 313e 49c8 623e 672a aabe d7b0 1dbf
00000080: 5c7e 9bbd 97ec 2d3e 4438 75be 494c 3ebe
00000090: 2af0 3bbe 6b5f bbbd dd99 94be 74a9 0bbf
000000a0: 5abd 17be e1c7 87be 1380 ac3d 519f 2dbf
000000b0: d315 bfbe 0b28 8bbe 2e1b f33d 516c 52bb
000000c0: 44cb 84be c754 f4be 9099 573c ae7a 553e
000000d0: 4ae7 b8be 92a7 d53b f09c 073e 397a 0a3e
000000e0: cb31 e23d 3d5d b6be 5342 bb3c 7736 773e
000000f0: 6d67 bdbd 79fc 7abc adfe 673c 8441 473e
00000100: 3786 de3d 93a3 1e39 d2d4 6cbd e245 e33e
00000110: b0b2 eebe d00c 013e 1864 2f3d b6c6 153e
00000120: 49fc 153e 7fcf 683e 963b 0b3c a7f2 af3d
00000130: 4063 853e b475 933d 2bdc 5bbd 8d59 cc3d
00000140: ce86 8f3d b4ef 843e c6f9 95be 82ea 853d
00000150: f1ee b23c 2eec 56bd 995a db3d 253b d7bc
00000160: 9665 7d3d 4f03 16be cffe 863d 3274 993d
00000170: d760 a23e 0448 4eba e071 c23d d451 e73d
00000180: 70e6 97bc 53ff d83e 55a3 313d 31b5 b7bd
00000190: f43d bfbe 6922 0bbe 8912 983c f679 cc3e
000001a0: c2a1 773e d283 bdbe 14d9 38be 56a3 00be
000001b0: 3c4b a93e 34e6 9a3d 6305 b2bd 3f2e 733e
000001c0: 3e8c d7be c7dc 26be 86d6 29be 37b4 55be
000001d0: 177a ec3d 8fc3 85be bfa1 dabe e281 80be
000001e0: 3d4f b3be 604e 993c 062d 34bd 0f32 e6be
000001f0: 4245 00bf 9d62 793c 1d52 8b3e 6463 223e
00000200: 870f eebc 3045 89be af6d 623c 4a2d 123e
00000210: b826 da3e b846 15be 05a7 2c3d 2e33 9b3e
00000220: 968f 093e 652d 603d 6218 763e 5c25 14be
00000230: 6332 6fbe 62c2 de3d b8cf 25be e12e 1d3e
00000240: e3a0 21be 1360 db3d d991 1abe 2f54 49bc
00000250: 3f1e 78be 3bbd a1be f095 dbbe 1f39 f63b
00000260: 38bf 22be 78b1 6dbe 0c4a 07bf 31af 0cbf
00000270: 0c6f 423e d835 3ebd e617 13be f48e a6be
00000280: 2d72 39bf eda9 a63e aafe 543e 7931 55be
00000290: 31f2 86be 1e67 33bf 2bc3 ca3d 78f9 ad3c
000002a0: f2f7 c2be ba95 92be d7ed 14bf bb3c 043e
000002b0: bbcf 5c3e 7b48 e83c ecd6 80bd 119c 7cbd
000002c0: ab7c debc df28 cb3e 169c 34bb 2538 2ebe
000002d0: 997d dfbd 38d1 e93d 3d3c 6a3e 766e c3bd
000002e0: b1e0 e03c 6c83 b3be e2f5 373e 9a72 c2be
000002f0: 477c 463e b8ed 733d 0228 f0bd 118a 3c3d
00000300: 5baf 3e3c de0f a23e 6b06 9ebe 4f9a 62bd
00000310: 2d3f b4bd d45c 873e d202 65bd 70f6 15be
00000320: 4aff 98bc 7701 4d3e 1021 8e3e 3ded 223d
00000330: 3114 423e e975 3fbb 4335 483e af39 443f
00000340: 20bb ba3e 9a88 ec3e 2957 693e c209 ea3d
00000350: a1f8 ac3e b7c5 14be f137 f53d dbe5 c23e
00000360: bc59 5a3c dded 4f3e 5bc0 593e 4561 893e
00000370: b35e 853e af82 e63d 0a2e e93e 4266 ad3e
00000380: a7e2 093e 2ef0 0bbe d52e c63e 336d a13e
00000390: ad29 313e e3bf 0abe 6a10 28be 4063 603e
000003a0: 36e3 c13e d83e cb3d e591 03be 7d90 3fbe
000003b0: ad60 d4bd 8486 ec3e 0b88 853d f6f1 29be
000003c0: 5e3a 6cbe 919f 463d 8262 8d3e 70c1 42be
000003d0: d92a a53d e3d1 4abe 8e85 d23d 2aea aa3d
000003e0: 9bad fb3c 87cd 9cbe b023 233e c55a 313c
000003f0: 3691 4b3d 6d79 933d 3185 c73e c207 733e

features.10.bias f4 [32]
-0.25292853 -0.12572439 0.068851806 0.30973688 -0.008837824 -0.0036599715 0.044117406 -0.096085586
-0.1985759 0.21009277 -0.087500684 0.053829424 0.043065783 -0.15935943 -0.046122048 -0.07565571
-0.0810497 -0.2435342 0.01315124 0.045499414 0.3844712 -0.15203646 -0.014750354 -0.04884022
-0.3356915 -0.038305234 -0.21920125 -0.024362352 0.16698585 0.032616284 0.14659217 -0.019141758
00000000: d97f 81be e5bd 00be 2d02 8d3d d595 9e3e
00000010: 85cc 10bc 22dc 6fbb 74b4 343d 85c8 c4bd
00000020: 7b57 4bbe 8f22 573e 8f33 b3bd 3e7c 5c3d
00000030: bf65 303d 1e2f 23be 79ea 3cbd 62f1 9abd
00000040: 63fd a5bd 0861 79be 4c78 573c 985d 3a3d
00000050: 69d9 c43e 72af 1bbe 78ab 71bc af0c 48bd
00000060: c2df abbe f3e5 1cbd 4b76 60be 8e93 c7bc
00000070: 57fe 2a3e a798 053d 421c 163e 2dcf 9cbc

features.12.weight f4 [32, 32, 5, 5]
0.13645844 -0.11574665 -0.1873688 -0.17170893 -0.01920451 0.078001015 -0.2337697 -0.18438822
-0.12769994 -0.2610869 0.08261706 -0.29308933 -0.09151094 0.18144888 -0.15023421 -0.13309664
-0.22537825 -0.012659823 -0.104320586 -0.13494898 -0.025301095 0.13189402 -0.21159354 -0.36166558
-0.15915374 0.044563185 -0.055275768 -9.1959046e-05 -0.2598173 -0.4792271 -0.049389496 -0.18431352
-0.2948735 -0.1649089 -0.020739052 0.12475069 -0.069892816 -0.23263054 -0.22651538 -0.36435032
0.18568528 0.33815157 -0.032811925 -0.39977333 -0.10634302 -0.14316574 0.07075303 0.19292733
0.08198532 -0.028620796 0.2057389 -0.016597563 -0.15888436 -0.44541016 -0.3793393 0.04598701
-0.21773835 -0.8108182 -0.55934906 -0.25568783 0.07224059 0.20245807 0.18991822 -0.0970374
-0.027380113 0.09342957 0.3771207 0.3662213 0.17138879 0.0664024 0.028729135 -0.20876764
-0.0006664118 0.10265365 0.36316052 0.11778648 0.35779676 0.6706193 0.23470694 -0.20516172
0.05659379 0.3347822 0.65143836 0.7243276 -0.0022953202 -0.13107274 0.28568387 0.043161314
-0.09038937 0.02632856 -0.23153093 0.010317705 -0.22015652 -0.3267465 0.018681178 -0.03649043
0.11928608 -0.48034015 -0.32754666 -0.2521243 0.13445841 -0.3688751 -0.62289494 -0.3107001
0.16367057 0.31329143 0.19501042 -0.3811865 -0.1812509 -0.2247204 0.15778877 -0.054624822
-0.05433326 -0.51942915 -0.06578985 0.15545858 -0.10122408 -0.28709826 -0.15461634 -0.0052487254
0.14875585 0.026297174 -0.2434518 -0.473548 -0.27544406 0.10788015 0.19740307 0.45675305
0.33855334 0.1179826 -0.18448025 0.34420526 0.4475181 0.36418766 -0.1352887 0.14524136
-0.10892266 0.3510225 -0.101148225 -0.043559365 0.075860016 0.14914916 0.2579511 0.14881283
-0.007466314 0.09546566 0.24962327 0.31476945 0.14962889 -0.12358622 -0.07288249 0.040811487
0.375763 0.346762 0.29611376 -0.4178366 -0.036736775 -0.21630087 0.68642056 0.444777
-0.23977555 0.13986059 -0.22421448 0.31916696 0.7809291 0.03977624 0.2253465 0.20449999
0.18435395 0.4110859 -0.16875911 0.1416412 0.4391301 0.36897838 0.2701422 -0.14875789
-0.12500231 0.016511433 0.012030935 -0.040552787 -0.0075974483 -0.09725628 -0.078660734 0.045752812
0.06729423 -0.10651086 0.14016654 0.40135556 -0.14860848 0.010741035 -0.13631637 0.12435778
0.5232697 0.24485832 0.12784234 0.15263343 0.034308296 0.07261422 0.1026708 0.017682003
-0.20170693 -0.14298417 0.004979017 0.1654494 0.22325648 -0.17483006 -0.15592134 -0.24839084
0.27756578 0.12180965 -0.02992865 -0.24863449 -0.7597177 0.05518299 0.06422668 0.08901612
-0.09637338 -0.06673107 -0.11446912 -0.22489509 0.0012831963 0.061764766 0.06472422 -0.045178197
-0.25600266 0.037236683 0.15722306 -0.093068175 0.09589499 -0.007533304 0.072015844 0.10680401
0.15334924 -0.12951845 -0.1394649 -0.10755623 0.09183153 0.11445047 -0.0032011298 -0.0034741096
-0.03160724 -0.09728116 -0.48829105 0.110364385 0.017270137 0.047565483 0.0053310324 -0.05156326
0.0053953347 0.066661835 -0.18766096 0.09526596 -0.030820597 -0.2611186 -0.42948633 -0.03262574
00000000: c3bb 0b3e 940c edbd 9bdd 3fbe 77d4 2fbe
00000010: c752 9dbc ffbe 9f3d 5361 6fbe 44d0 3cbe
00000020: c6c3 02be 2fad 85be 2233 a93d ce0f 96be
00000030: 166a bbbd bccd 393e ffd6 19be 7c4a 08be
00000040: 8ec9 66be 256b 4fbc 08a6 d5bd 1130 0abe
00000050: 3e44 cfbc 3a0f 073e faab 58be 3b2c b9be
00000060: 33f9 22be e387 363d d868 62bd 23da c0b8
00000070: c606 85be 415d f5be a44c 4abd afbc 3cbe
00000080: a9f9 96be e1dd 28be f2e4 a9bc 4a7d ff3d
00000090: f723 8fbd b336 6ebe a6f3 67be 208c babe
000000a0: 4824 3e3e 3422 ad3e cc65 06bd 17af ccbe
000000b0: 5fca d9bd 0a9a 12be f7e6 903d be8e 453e
000000c0: ebe7 a73d 2976 eabc 38ad 523e 9df7 87bc
000000d0: 95b2 22be cd0c e4be c338 c2be e05c 3c3d
000000e0: cdf6 5ebe c891 4fbf 8031 0fbf 84e9 82be
000000f0: e0f2 933d 2b51 4f3e ec79 423e 8bbb c6bd
00000100: 424c e0bc 0158 bf3d f715 c13e 5c81 bb3e
00000110: 8b80 2f3e fbfd 873d 5d59 eb3c 2fc7 55be
00000120: 24b2 2eba 143c d23d 2df0 b93e 0a3a f13d
00000130: 2331 b73e b5ad 2b3f 0457 703e ea15 52be
00000140: e4ce 673d 9368 ab3e aac4 263f 896d 393f
00000150: 156d 16bb ef37 06be 2845 923e ebc9 303d
00000160: 101e b9bd feae d73c 7216 6dbe 970b 293c
00000170: b670 61be 514b a7be 4509 993c fd76 15bd
00000180: 434c f43d 25ef f5be 32b4 a7be 7016 81be
00000190: 77af 093e 32dd bcbe 0b76 1fbf 1514 9fbe
000001a0: 4299 273e bc67 a03e d0b0 473e e02a c3be
000001b0: d699 39be 1b1d 66be 6193 213e 47be 5fbd
000001c0: 8d8c 5ebd 4ff9 04bf d4bc 86bd 8930 1f3e
000001d0: 924e cfbd 8bfe 92be bf53 1ebe 80fd abbb
000001e0: 7453 183e 2c6d d73c 6e4b 79be e274 f2be
000001f0: 0107 8dbe 45f0 dc3d 0824 4a3e 89db e93e
00000200: dd56 ad3e dda0 f13d 64e8 3cbe ac3b b03e
00000210: 1821 e53e ce76 ba3e 1f89 0abe 27ba 143e
00000220: d812 dfbd 39b9 b33e cd26 cfbd 4e6b 32bd
00000230: 7f5c 9b3d 8fba 183e 2b12 843e 6462 183e
00000240: fba7 f4bb 8083 c33d 3e9d 7f3e 7629 a13e
00000250: 5138 193e c61a fdbd 6a43 95bd f229 273d
00000260: 0264 c03e ca8a b13e 399c 973e aeee d5be
00000270: 4d79 16bd fa7d 5dbe 42b9 2f3f d0b9 e33e
00000280: b987 75be 9d37 0f3e 7b98 65be da69 a33e
00000290: f8ea 473f 69ec 223d 3cc1 663e 7268 513e
000002a0: 48c7 3c3e da79 d23e 30cf 2cbe 640a 113e
000002b0: a9d5 e03e bcea bc3e 1450 8a3e fd53 18be
000002c0: 9b00 00be fc42 873c 661d 453c ae1a 26bd
000002d0: 04f4 f8bb 4d2e c7bd e118 a1bd 4d67 3b3d
000002e0: 8fd1 893d 5e22 dabd d187 0f3e 7a7e cd3e
000002f0: d22c 18be 2bfb 2f3c 8596 0bbe 4baf fe3d
00000300: 01f5 053f 24bc 7a3e 1ae9 023e f04b 1c3e
00000310: db86 0c3d c4b6 943d 1245 d23d d9d9 903c
00000320: 438c 4ebe 716a 12be 0627 a33b 916b 293e
00000330: 599d 643e a706 33be d8a9 1fbe 2b5a 7ebe
00000340: 1a1d 8e3e 5677 f93d ee2c f5bc 0a9a 7ebe
00000350: dc7c 42bf 8f07 623d 4789 833d 154e b63d
00000360: 685f c5bd 4daa 88bd c96e eabd e64a 66be
00000370: ec30 a83a 0dfd 7c3d 228e 843d c60c 39bd
00000380: c812 83be 7e85 183d 15ff 203e 879a bebd
00000390: 9864 c43d efd9 f6bb 0b7d 933d 10bc da3d
000003a0: 9507 1d3e 7ca0 04be e3cf 0ebe 7146 dcbd
000003b0: 2b12 bc3d 0265 ea3d 0cca 51bb e3ad 63bb
000003c0: 9876 01bd 583b c7bd 4901 fabe b906 e23d
000003d0: 1a7a 8d3c 06d4 423d f1af ae3b ff33 53bd
000003e0: 59cb b03b 0086 883d 322a 40be cd1a c33d
000003f0: 7a7b fcbc 56b1 85be a2e5 dbbe 91a2 05bd

features.12.bias f4 [32]
0.023038507 -0.022420222 -0.5991415 0.61733043 0.09930682 0.28961357 0.37927824 0.46328503
-0.13139085 -0.42396742 -0.26121658 0.90687317 -0.46615943 -0.075813666 0.43298927 -0.39696446
0.39467877 -0.083428174 -0.2333943 0.59827197 -0.21229422 -0.31936085 0.21161637 -0.3544593
-0.424934 0.20602402 0.113549486 0.2810091 0.20952165 -0.022589318 0.11523225 -0.5554131
00000000: 40bb bc3c 9daa b7bc 5661 19bf 5e09 1e3f
00000010: 6061 cb3d 3b48 943e c230 c23e b233 ed3e
00000020: 538b 06be 4212 d9be 2ebe 85be d728 683f
00000030: 73ac eebe 3244 9bbd c5b0 dd3e ed3e cbbe
00000040: 5613 ca3e 64dc aabd eafe 6ebe 5a28 193f
00000050: a863 59be 4483 a3be f6b1 583e b07b b5be
00000060: f390 d9be f6f7 523e a28c e83d 6de0 8f3e
00000070: d88c 563e 3c0d b9bc e3fe eb3d 8e2f 0ebf

features.15.weight f4 [16, 32, 3, 3]
0.017498529 -0.07045568 -0.07654966 -0.023692891 0.05025104 0.064350836 -0.060833275 0.074603625
0.0072225896 -0.21867363 -0.1983391 -0.17745431 -0.011105378 -0.16042945 -0.17596652 -0.19345284
-0.034667186 -0.21271473 0.0040035197 0.0484374 -0.67568487 0.33872005 0.2590448 -0.25214055
-0.5544401 -0.31751525 -0.088621624 0.049134415 -0.0036470005 -0.32693994 -0.0006273306 0.1584672
-0.23279454 -0.20683783 -0.02508601 -0.069149755 0.29469338 0.084254146 0.3523667 0.015596848
-0.19301833 -0.03412103 0.20448217 0.106921956 0.28972527 -0.10540057 -0.08485606 -0.10141655
0.036192168 0.1377413 0.0075229453 -0.16612549 0.08276453 -0.21631342 0.17142045 0.00020587939
0.36609596 -0.058539025 -0.17543103 0.011953886 0.23684612 0.075480364 0.1927911 0.08435953
-0.02704379 -0.1411922 0.02895435 -0.0045006736 0.13167 -0.06706788 -0.07291828 0.08401742
-0.023405759 -0.08407805 0.017135357 0.03048771 -0.048326466 0.025848715 -0.07556977 -0.18118592
-0.08374435 0.40205303 -0.044108342 -0.36825946 -0.12873773 0.011283466 0.039762862 -0.25383556
-0.10612841 0.18211518 -0.11993064 -0.0065560075 -0.23931149 -0.05414163 0.20960855 0.13172205
-0.14847928 0.007925323 -0.01153094 -0.07434732 -0.27178076 -0.2957572 -0.28356433 -0.08743296
0.08893542 -0.402818 0.13322432 0.52703863 0.09585583 0.09231093 -0.006589383 0.03447046
-0.04285794 0.10801596 -0.15500358 0.025375502 0.09192036 -0.13052396 0.043140825 -0.021803236
-0.080050044 0.014165794 0.04452097 0.08859893 0.010068693 -0.08239771 0.017194625 0.19004552
0.08348199 0.0077617094 0.0067257327 -0.12531398 0.2441641 0.032139577 -0.16425821 -0.0063180937
0.035346366 -0.3115635 -0.027267603 0.2055603 0.019778369 -0.2476889 0.067267954 -0.07826484
-0.17667091 0.056587994 0.059393488 0.089035735 0.08902094 -0.038797826 0.09896212 -0.056852907
-0.08171392 -0.027898118 0.0052679945 -0.20540112 0.019402644 0.08933089 -0.16649352 0.10040305
0.09665166 0.00578974 0.18437694 -0.31050047 -0.78005385 0.015314632 0.18179494 -0.0684543
-0.49624076 -0.23796378 0.048388656 -0.023162633 -0.15024504 -0.22608654 0.07291242 0.10373646
0.064036876 -0.30983746 -0.17696296 -0.15932271 0.10005014 -0.06698892 0.07524304 0.03483427
-0.039938603 -0.08855009 -0.041921847 0.025559895 0.044151265 0.014084163 -0.01358737 0.1913517
0.113189444 0.028360585 -0.040257514 -0.07837234 0.023200205 -0.04126564 0.1606894 0.02606537
0.2901595 -0.040453162 -0.08587179 0.08336694 0.20906794 0.1322819 0.14910387 0.12619749
-0.0029305315 0.1394911 0.07576548 -0.012082313 -0.28776333 0.024682146 -0.04397948 -0.108766645
0.23745717 -0.16381653 -0.47516644 -0.028555294 -0.12763153 0.053071402 -0.35873297 0.04038324
0.5107557 0.06585453 0.2097894 0.45654416 0.006845531 -0.19736911 0.039314914 0.40440091
0.14771427 0.067198776 -0.23773873 -0.0819239 0.06368925 0.13019891 0.27288276 0.03201444
-0.025022585 0.005058448 -0.22535919 0.040023215 -0.06814569 0.24376006 -0.043577716 -0.1311704
-0.008586553 0.1321406 -0.04923068 0.051722173 -0.21577573 -0.0717003 -0.045448605 0.06046761
00000000: 1359 8f3c 114b 90bd 11c6 9cbd 9817 c2bc
00000010: 09d4 4d3d 5fca 833d 502c 79bd c9c9 983d
00000020: 79ab ec3b fbeb 5fbe 6819 4bbe 95b6 35be
00000030: 55f3 35bc 9e47 24be 9130 34be 8018 46be
00000040: 2eff 0dbd e4d1 59be f52f 833b 4c66 463d
00000050: aff9 2cbf b76c ad3e 85a1 843e 9118 81be
00000060: c9ef 0dbf 5c91 a2be 417f b5bd 2b41 493d
00000070: 8402 6fbb ac64 a7be 7273 24ba 3a45 223e
00000080: b161 6ebe 4ccd 53be 2d81 cdbc 639e 8dbd
00000090: 0de2 963e 708d ac3d 6869 b43e ec89 7f3c
000000a0: 99a6 45be 7ec2 0bbd c663 513e e6f9 da3d
000000b0: df56 943e 41dc d7bd 04c9 adbd 7bb3 cfbd
000000c0: 3d3e 143d 0e0c 0d3e 0a83 f63b cd1c 2abe
000000d0: 7380 a93d 4481 5dbe d888 2f3e 54e1 5739
000000e0: ee70 bb3e 9ec6 6fbd 31a4 33be 3bda 433c
000000f0: ca87 723e 7395 9a3d 086b 453e b0c4 ac3d
00000100: f08a ddbc b094 10be ac31 ed3c 637a 93bb
00000110: 80d4 063e e25a 89bd 2e56 95bd 5311 ac3d
00000120: 6fbd bfbc 1d31 acbd 735f 8c3c 5dc1 f93c
00000130: f9f1 45bd afc0 d33c 53c4 9abd cd88 39be
00000140: 2882 abbd e5d9 cd3e f3aa 34bd 818c bcbe
00000150: d3d3 03be 49de 383c 62de 223d bcf6 81be
00000160: da59 d9bd 677c 3a3e 329e f5bd c7d3 d6bb
00000170: 120e 75be 9dc3 5dbd a0a3 563e 25e2 063e
00000180: f40a 18be 37d9 013c 45ec 3cbc 6843 98bd
00000190: d926 8bbe 7d6d 97be 582f 91be 0d10 b3bd
000001a0: c623 b63d 293e cebe f56b 083e 01ec 063f
000001b0: 1050 c43d 830d bd3d c0eb d7bb e630 0d3d
000001c0: cf8b 2fbd 7937 dd3d 42b9 1ebe 49e0 cf3c
000001d0: be40 bc3d 13a8 05be 6fb4 303d b39c b2bc
000001e0: 47f1 a3bd a517 683c 9f5b 363d 5b73 b53d
000001f0: 29f7 243c 21c0 a8bd bedb 8c3c 4b9b 423e
00000200: 9bf8 aa3d f055 fe3b 8963 dc3b 4f52 00be
00000210: 2706 7a3e caa4 033d 4e33 28be 0308 cfbb
00000220: 5ac7 103d 4085 9fbe 4f60 dfbc 667e 523e
00000230: 3f06 a23c 29a2 7dbe c8c3 893d 5149 a0bd
00000240: 38e9 34be d0c8 673d 9646 733d 5e58 b63d
00000250: 9c50 b63d 78ea 1ebd a7ac ca3d 98de 68bd
00000260: a159 a7bd 988a e4bc 249f ac3b ac54 52be
00000270: 4bf2 9e3c 1df3 b63d 477d 2abe 1da0 cd3d
00000280: 4ef1 c53d dcb7 bd3b 4fcd 3c3e ebf9 9ebe
00000290: 9cb1 47bf 39ea 7a3c 7428 3a3e c531 8cbd
000002a0: 4513 febe c7ac 73be 2f33 463d 90bf bdbc
000002b0: d6d9 19be 3b83 67be 1b53 953d c873 d43d
000002c0: c425 833d 04a3 9ebe c735 35be 7e25 23be
000002d0: 16e7 cc3d 7d31 89bd 0619 9a3d 61ae 0e3d
000002e0: a996 23bd c059 b5bd 3eb6 2bbd fc62 d13c
000002f0: f5d7 343d 43c1 663c 8f9d 5ebc b3f1 433e
00000300: decf e73d 7554 e83c 10e5 24bd ad81 a0bd
00000310: 5b0e be3c 2906 29bd c38b 243e 0b87 d53c
00000320: c98f 943e 37b2 25bd 8ddd afbd 49bc aa3d
00000330: e815 563e e874 073e afae 183e ea39 013e
00000340: 290e 40bb c1d6 0e3e ef2a 9b3d e5f4 45bc
00000350: b755 93be 3632 ca3c d423 34bd 0cc1 debd
00000360: f927 733e 85bf 27be 0449 f3be cbec e9bc
00000370: d7b1 02be 6661 593d d9ab b7be e568 253d
00000380: e3c0 023f bdde 863d 08d3 563e 28c0 e93e
00000390: 7a50 e03b 211b 4abe ad08 213d a30d cf3e
000003a0: 6942 173e 839f 893d c871 73be b8c7 a7bd
000003b0: 826f 823d dd52 053e 4ab7 8b3e 9321 033d
000003c0: 2afc ccbc 56c1 a53b 8fc4 66be 62ef 233d
000003d0: f88f 8bbd 3d9c 793e 8c7e 32bd 8951 06be
000003e0: 9dae 0cbc de4f 073e 1ca6 49bd a1da 533d
000003f0: 50f4 5cbe 9bd7 92bd 5128 3abd e2ac 773d

features.15.bias f4 [16]
0.6624733 0.68132746 -1.5526673 -0.55565804 0.6805973 -2.8918478 0.06730503 0.5230697
-0.47274548 -0.05829379 0.3921286 0.12695323 0.09332565 0.23451193 0.70803136 -0.020190608
00000000: da97 293f 7a6b 2e3f cdbd c6bf 9b3f 0ebf
00000010: a03b 2e3f 0914 39c0 38d7 893d e5e7 053f
00000020: b20b f2be 78c5 6ebd 14c5 c83e 0700 023e
00000030: 8521 bf3d e523 703e 8b41 353f c666 a5bc
